contact_head/finetune.pt (torch, 3435 bytes, 1 tensors)

weight f4 [1, 600]
0	0x3be38b80	0.00694412
1	0xb9deb091	-0.00042474692
2	0x3c2b7071	0.01046382
3	0xbc839234	-0.016060926
4	0x3ce9806a	0.028503615
5	0xbcbe0571	-0.023195954
6	0x3cf0a9a5	0.029377768
7	0x3cd5947b	0.026071778
8	0x3c2fd366	0.010731554
9	0xbb07ed86	-0.002074094
10	0xbc15a50f	-0.009133591
11	0xbc04baca	-0.008101175
12	0x3c900342	0.017579678
13	0x3ccbfe9e	0.024901684
14	0xbbebe89d	-0.0071993605
15	0x3caa3923	0.020779198
16	0x3bba217f	0.0056802626
17	0xbc03a09c	-0.008033898
18	0x3cd74aea	0.026280839
19	0x39bcef7f	0.00036036593
20	0xbd865fcf	-0.06561243
21	0x3d959150	0.07303107
22	0xbc63beec	-0.0139005
23	0xbac1042c	-0.0014725975
24	0xbc92df88	-0.017928854
25	0xb9d02df0	-0.00039707078
26	0x3d0e1697	0.034689512
27	0x3cec6608	0.028857246
28	0xb9e00755	-0.00042730072
29	0xbd31a66f	-0.043371614
30	0xbd2eb28e	-0.04265075
31	0xbc113d6d	-0.008864743
32	0xbd865667	-0.06559449
33	0xbcb71801	-0.022350313
34	0xbd8b1f2f	-0.06793057
35	0x3d01a96d	0.031655718
36	0x3af5cd18	0.0018753139
37	0x3ad193e4	0.0015989509
38	0xbcc34a9f	-0.023839293
39	0x3d1c30fc	0.038132653
40	0xbc863a39	-0.016385185
41	0xbc9d4d26	-0.019201826
42	0xbb6b2323	-0.0035879097
43	0xbcbd39d0	-0.023098856
44	0x3ba93c59	0.0051646647
45	0x3cebc3f7	0.028779967
46	0xbcd2a129	-0.025711613
47	0x3c6275ff	0.013822078
48	0x3c01d730	0.00792484
49	0xbc5d5dc1	-0.013511122
50	0xbcbc0c80	-0.02295518
51	0x3c04d1a0	0.008106619
52	0xbbf2745c	-0.007399125
53	0x3d3cf0db	0.046128135
54	0xbcadf938	-0.021237
55	0xbb3d8afe	-0.0028921957
56	0xb9d79a3d	-0.00041122912
57	0x3b1a532c	0.002354811
58	0xbc31e739	-0.01085835
59	0xbccfbfcc	-0.02536001
60	0x38b8b968	8.808338e-05
61	0x3d81327f	0.063084595
62	0x3c8484eb	0.016176661
63	0xbd06149f	-0.03273451
64	0xbba5cb90	-0.005059667
65	0x3bd14ca2	0.006387309
66	0x3c07a028	0.00827793
67	0x3c8ec70a	0.017428894
68	0xbc39513a	-0.01131087
69	0x3d0274ac	0.03184955
70	0xbc0f16bf	-0.00873345
71	0xbcdbe1cd	-0.026841069
72	0x3beff46a	0.0073228376
73	0xbca6ac04	-0.020345695
74	0xbc7d5b51	-0.015463666
75	0x3d93d0f7	0.07217591
76	0xbce72864	-0.028217502
77	0xbd1d086e	-0.038338117
78	0x3c6e932b	0.014561455
79	0xbcb989f1	-0.022648783
80	0x3c40acef	0.011759981
81	0x3b292878	0.0025811475
82	0x3cc508dd	0.024052078
83	0xbc58fba8	-0.013243593
84	0x3d595d0e	0.05306726
85	0x3b252b0f	0.0025202667
86	0xbc749175	-0.014927258
87	0xbd552caf	-0.052044567
88	0xbcb53112	-0.022118125
89	0x3c1da105	0.00962091
90	0xbb9d360a	-0.0047977017
91	0x3cc2a593	0.023760593
92	0x3c229694	0.009923596
93	0x3ce0eff9	0.027458178
94	0xbc976d01	-0.018484594
95	0x3a1c0123	0.0005951097
96	0xbb3d640c	-0.0028898744
97	0xb90f597f	-0.00013670883
98	0xbacb9014	-0.001553061
99	0xbc2d8cd9	-0.010592663
100	0x382f2d46	4.1765416e-05
101	0x3bdcb35d	0.006735249
102	0x3cb7c5a0	0.022433102
103	0x3c79ea59	0.015253627
104	0x3cb3dd97	0.021956248
105	0x3b84ed13	0.0040565818
106	0x3bbf93b2	0.005846464
107	0xbc0f352f	-0.008740707
108	0xbcd39681	-0.025828602
109	0x3d0d8a47	0.0345557
110	0x3aa52e69	0.0012602332
111	0xbcab7a38	-0.020932302
112	0xbd3d6d29	-0.04624668
113	0xbc78c1b5	-0.015182902
114	0x3cae033c	0.021241777
115	0xbd213fcc	-0.039367482
116	0xbbda3ab8	-0.006659832
117	0x3d22e921	0.03977311
118	0x3c087c80	0.008330464
119	0x3cbdb006	0.023155224
120	0x3b8a21f3	0.004215473
121	0x3be67207	0.007032636
122	0x3cd94d9a	0.026526261
123	0x3a5e5bda	0.0008482315
124	0x3b181236	0.0023204214
125	0x3a25fa7b	0.0006331575
126	0xbc3e422b	-0.011612455
127	0x3b994a79	0.0046780673
128	0xbc1d8593	-0.009614366
129	0x3d5cf0e3	0.053940665
130	0xbb724f5a	-0.0036973567
131	0x3bbce894	0.00576503
132	0x3d227fe9	0.039672766
133	0xb9c852ad	-0.0003820857
134	0x3c517009	0.012783059
135	0xbc2b4fda	-0.01045605
136	0xbcddb2ef	-0.027062861
137	0x3c6d32fd	0.014477489
138	0x3d416930	0.047219455
139	0xbaacffad	-0.0013198756
140	0xbcbc86c1	-0.023013474
141	0x3c6347f5	0.013872136
142	0x3cd13615	0.025538484
143	0xbcd93446	-0.026514184
144	0xbbe5b811	-0.007010468
145	0x3c04195f	0.00806269
146	0xbcd2cb88	-0.025731817
147	0xbc0d1898	-0.008611821
148	0x3d164e8d	0.036696006
149	0x3be7fe6e	0.007079891
150	0x3bd70951	0.00656239
151	0xbcf1523a	-0.029458154
152	0xbc76cde7	-0.015063739
153	0x3d3f66e3	0.04672898
154	0xbbb06d8e	-0.0053841537
155	0x3b95e8e1	0.0045748805
156	0x3b0274d0	0.0019906051
157	0x3c90363a	0.017603982
158	0x3d1017dc	0.035179004
159	0x3cce92cf	0.025216488
160	0x3b17daab	0.0023171108
161	0xbc51304a	-0.012767861
162	0xb8c67091	-9.462343e-05
163	0xbc642460	-0.013924688
164	0xbafcc5e3	-0.0019285049
165	0x3c860186	0.016358148
166	0xbc6aeffa	-0.014339441
167	0x3c98ba6b	0.018643579
168	0xbbde9067	-0.0067921164
169	0xbb23570c	-0.002492371
170	0x3c1e1821	0.0096493075
171	0xbb0c349d	-0.0021393665
172	0xbbbc3953	-0.0057441383
173	0x3c637bd6	0.013884505
174	0xbc2be5a3	-0.010491761
175	0xbcfb46ea	-0.030673463
176	0x3c557972	0.013029443
177	0x3d71d018	0.059036344
178	0x3c176a20	0.009241611
179	0xbcfeefc9	-0.031120198
180	0x3c3d1059	0.011539542
181	0xbcd21e99	-0.025649356
182	0xbb6e7525	-0.0036385742
183	0xbca2923b	-0.019845119
184	0xbbdcd899	-0.0067396876
185	0xbd25e3a3	-0.040500294
186	0x3ca25d14	0.019819774
187	0x3b9bb7ba	0.0047521265
188	0xbcbbfa61	-0.022946538
189	0x3c70bbe2	0.014693232
190	0x3bbc0c0d	0.0057387413
191	0x3b72467b	0.003696828
192	0x3b8b8f0a	0.004258995
193	0xba0ad3b4	-0.00052958285
194	0xbc0a18b6	-0.008428743
195	0xbd0792fa	-0.033099152
196	0x3bbc1ad3	0.0057405024
197	0xbd1273dc	-0.035755023
198	0x3d25c483	0.04047061
199	0xbcea8ca0	-0.028631508
200	0xb95b63e7	-0.00020922684
201	0xb9af6aaa	-0.00033458072
202	0x3cf38511	0.029726537
203	0xbc73cd6e	-0.014880521
204	0xbcc58bde	-0.024114545
205	0x3cbd3c1d	0.023099953
206	0x3c1adb60	0.009451717
207	0xbc39ef02	-0.011348488
208	0x3ccbe9c9	0.02489175
209	0x3bb47763	0.005507396
210	0xbc4957e5	-0.012289022
211	0xb85f1413	-5.318604e-05
212	0x3c62699c	0.013819125
213	0x3bdf5d67	0.0068165543
214	0x3ca8dcee	0.02061316
215	0x3c311375	0.010807862
216	0x3bac5985	0.005259695
217	0x3bbce541	0.005764634
218	0xbc449615	-0.011998673
219	0x3ce9ccd0	0.028540045
220	0x3bc1a24c	0.00590924
221	0x3d4b09b0	0.049569786
222	0x3bf23764	0.007391857
223	0x3c60357b	0.013684626
224	0xbd196cab	-0.03745715
225	0x3b9b3f9a	0.0047378065
226	0xbbf60192	-0.0075075114
227	0x3b940489	0.004517142
228	0x3c8b7fa5	0.01702864
229	0x3b52eef9	0.0032185896
230	0xbd092ba6	-0.033488892
231	0x3d2b4f1e	0.0418235
232	0x3bd71711	0.006564029
233	0x3c06285e	0.008188335
234	0xbabd9b11	-0.0014465769
235	0x3b2ba731	0.0026192183
236	0xbcdc7141	-0.026909472
237	0x3be0eb27	0.00686397
238	0xbd4cc5c1	-0.04999328
239	0xbcb3e98f	-0.021961955
240	0xbbddbe51	-0.0067670722
241	0x3c4585dc	0.01205584
242	0x3c58cab8	0.013231926
243	0x3ba8cd43	0.005151422
244	0x3c1164ee	0.008874161
245	0xbd63d3f5	-0.05562206
246	0xbabd94b7	-0.0014463876
247	0x3cd9328c	0.02651336
248	0xbc985966	-0.018597316
249	0x3c2a6dd2	0.01040216
250	0x3cf9d651	0.030497702
251	0x3d18b952	0.03728611
252	0xbc666e35	-0.014064361
253	0xbd10899e	-0.035287492
254	0xbcc0ed0d	-0.023550535
255	0xbc8d331b	-0.017236283
